predictive_maintenance_model.pth (torch, 498809 bytes, 12 tensors)

cnn.0.weight f4 [64, 17, 3]
00000000: 4617 653c 1660 963d f821 debc 5878 033d
00000010: e391 423b 7389 8cbd b204 9b3d cfea b9bd
00000020: 11d5 9d3d 7273 f23d 52f5 753d d7bc 7b3d
00000030: 8b37 51bd 585d a83d a5d3 2a3e 41c2 fabb
00000040: 2667 473e dc44 b43d dcad 30be 8829 05be
00000050: 33ae dabd 67b9 dd3d cc55 2a3e 8b4a d73d
00000060: d202 623e 15bd cb3d fe0f 7e3e b143 453e
00000070: 0946 5b3e 00c6 383e ff6c 5ebd 19c7 eebd
00000080: bdee e0bd e0a8 80bd 1a46 c0bc b4d9 db3c
00000090: e83e 493e 5450 233e 8997 2bbd 1051 933d
000000a0: 67aa 1b3e 2b13 593e 5475 273e e82d 8d3c
000000b0: 7587 f73c dbce 88be 9090 2fbe db79 053c
000000c0: 7441 06be d5d5 4bbe 9374 61be 127d 303d
000000d0: 1e48 02be 8590 283d 4f3c 06be adac ac3d
000000e0: 05a3 be3c 0375 263d 03e4 07be d584 31bd
000000f0: c170 6c3d 64b3 0fbd 2cba 653d 32e2 f03d
00000100: dba6 0b3e 5624 013e 5468 b0bd fef2 3bbd
00000110: 4bbf de3d 1ed8 8dbd f506 9c3d 7ba6 fb3c
00000120: 5d29 903d d370 013d 0bcc 703c 3dd2 97bd
00000130: c7b7 debd c26b d7bd d388 c9bd c691 88bc
00000140: fc9e f8bd 5e2a 6b3d f643 e63d 2e4e 943c
00000150: 2fdd 443d 7547 993d d2e3 ce3d ad47 b1bd
00000160: 3a0b a3bd fb97 d4bd efe9 80bd 5368 b2bd
00000170: 4aa6 023e ce70 06be 4606 57bc 7890 1d3d
00000180: c441 383d 00e1 0a3e 190f 6bbd 6c51 393c
00000190: bd4e 9f3d 9d78 b8bd 75d2 883d 556e adbd
000001a0: c904 08be 5a87 cdbc 9e28 3b3c 4c4b ca3d
000001b0: 4c56 99bc 0d27 d9bc 06d7 98bd bf11 42bd
000001c0: 1219 0ebe c842 8fbd ffa7 e8bd a712 86bc
000001d0: b53d dabc 99f4 0b3e abeb cb3c 83db 8e3d
000001e0: 3e25 4a3c 8613 083d 9a99 b73d 0284 8b3d
000001f0: 4902 41bc 72c7 6ebd 2000 0dbe ca28 92bd
00000200: 486e 06be 4645 c7bd 133e 543d 4f54 25ba
00000210: 1d4d fc3d f415 c3bd 483e 89bd 0272 7c3c
00000220: c0fe ed39 868e eabd a720 38bc f25b e13d
00000230: 2566 b33d 4c5b 4d3d 525d 09be 7cef cb3b
00000240: ea1d ac3b c37a e4bd d9f9 9e3c 1a7e 68bd
00000250: 81a5 b4bd 68ad d33d ae25 043e e758 673d
00000260: 2700 cabd c8e2 aebd 360c 23bd d845 b93d
00000270: c6ab 6dbd 4d2f 62bd f838 053e fc86 a2bb
00000280: 3ba4 533a a046 c2bd 9f64 c73c 1818 ac3d
00000290: e437 83bd 67ff a23d 5b7b 16be 8292 c0bd
000002a0: 7515 e33d eb96 923b 41b1 1abc 2c32 a43d
000002b0: 5737 7c3c 825d eabd 9040 40bd 5129 0cbd
000002c0: 7e59 423d 5f52 7d3c 6278 543c 3029 a1bd
000002d0: b96c e63d bb76 b63d 659e 763d aa58 293d
000002e0: 6f7f e8bb da1c 8c3d 5495 10be 84f0 c33d
000002f0: cfa3 af3d 64f1 b93b 0df0 3abc 8fe1 003d
00000300: 3972 e2bd afcc a23b 27b6 893d 9e25 0e3d
00000310: 028a d43c 2de2 473d 26ab e93d db3e ccbd
00000320: b455 0ebe b926 24bd 19c5 14bd f8f2 5f3d
00000330: f514 ae3d a3ce 6b3a 104f 843d 08c2 b8bd
00000340: f1b3 df3d 41be 7cbd 2eb2 06be 18fb 3b3d
00000350: 56bf 84bd 9c05 f63d 61c4 e1bd 4a9f a6bd
00000360: ffb9 af3d 9508 c6bd 7414 86bd b64a 46bd
00000370: dc16 0a3e 0fd9 2e3d b9ba a83b 17f2 ccbd
00000380: fe26 933d 6989 0abe ec20 bc3c a884 bbbd
00000390: eb61 89bd fe4b b03d 2172 aa3b 9593 3e3c
000003a0: e02f eabb 6f0d 2dbc 9504 2ebc 7f87 89bd
000003b0: 4cb7 cbbc a798 bd3d 08dc 17bd 4466 acbd
000003c0: 1840 0abe 59d6 94bd 9767 9e3d 084f 0b3e
000003d0: 0f52 b3bd e545 21bd 30da e5bd 4c98 423d
000003e0: c311 9abd b763 203d 3220 fabd 03de ecbb
000003f0: bc8a 0d3e a5c1 853c 9cef e3bd 0dd1 68bd
0.0139826 0.07342546 -0.027115807 0.03209719 0.0029689006 -0.06862154 0.07569255 -0.09077989
0.07706655 0.11838426 0.06004841 0.06145939 -0.05107836 0.08220929 0.16682298 -0.0076525514
0.19472942 0.088021964 -0.17253822 -0.13004124 -0.10677757 0.10826378 0.16634291 0.10512265
0.22071388 0.09948174 0.24810788 0.19264103 0.21413435 0.18044281 -0.054303166 -0.116590686
-0.10983036 -0.0628221 -0.023470927 0.026837207 0.19652903 0.15948611 -0.041892562 0.07193196
0.15201722 0.21198718 0.16353351 0.017233804 0.030215958 -0.26720318 -0.1714499 0.008146728
-0.13110906 -0.19905789 -0.22017126 0.043088026 -0.12722823 0.04115345 -0.13108943 0.08431373
0.023271093 0.040638935 -0.13270573 -0.04333957 0.057724718 -0.03508319 0.05608575 0.11761893
0.13637869 0.12611517 -0.08613649 -0.045886032 0.1087633 -0.06925987 0.076185144 0.030719033
0.070391394 0.03160174 0.014697085 -0.07413147 -0.108748965 -0.105186 -0.0984055 -0.016671073
-0.12139699 0.05741345 0.11243431 0.018103685 0.0480625 0.074843325 0.10102047 -0.08656249
-0.07961126 -0.103805505 -0.06294619 -0.087113045 0.12758747 -0.13128969 -0.013124054 0.038467854
0.044984594 0.13562393 -0.057387445 0.011310916 0.0777869 -0.0900738 0.066807665 -0.0846831
-0.13283075 -0.025088955 0.011423258 0.09877643 -0.018717907 -0.026507879 -0.074628875 -0.047380205
-0.13876751 -0.069951594 -0.11360168 -0.016366316 -0.026640752 0.13667525 0.024892649 0.06975462
0.012337981 0.033221744 0.08964844 0.06812288 -0.01178033 -0.058295675 -0.13769579 -0.07136686
-0.13128006 -0.0973001 0.05181701 -0.00063068134 0.12319396 -0.095256716 -0.06701332 0.015408041
0.00045393966 -0.114529654 -0.011238254 0.11003865 0.08759717 0.050135896 -0.13414505 0.006223617
0.0052525895 -0.111562274 0.019406246 -0.056760885 -0.0882063 0.10335809 0.12904999 0.05648127
-0.0986331 -0.08539349 -0.039806567 0.09046525 -0.058025144 -0.05522089 0.13010013 -0.004959939
0.00080734835 -0.09486127 0.024339972 0.08403033 -0.06407145 0.079588704 -0.14695494 -0.09402944
0.11088077 0.004473557 -0.009441675 0.08017382 0.015394053 -0.114436164 -0.04693657 -0.03421909
0.047448628 0.015461533 0.012968155 -0.07869184 0.11251206 0.08909365 0.06020965 0.041344322
-0.0070952694 0.068414405 -0.14119464 0.09567359 0.08576166 0.005674528 -0.011409772 0.03146511
-0.110569425 0.004968248 0.06724196 0.034703843 0.025944714 0.048799682 0.11409597 -0.09972926
-0.1389988 -0.04007599 -0.03632078 0.054675072 0.08500091 0.000899533 0.064603925 -0.090213835
0.10922993 -0.061704878 -0.13153908 0.04589376 -0.06481807 0.12012789 -0.110237844 -0.08135851
0.08580398 -0.09669606 -0.0654687 -0.048411094 0.13485283 0.042687472 0.005149212 -0.100071125
0.071851715 -0.1352898 0.022964917 -0.091561615 -0.067081295 0.08608244 0.0052015935 0.011631866
-0.0071468204 -0.010562285 -0.01062121 -0.06715297 -0.024867676 0.09257632 -0.037075073 -0.08417943
-0.13501012 -0.07267446 0.07734602 0.13604367 -0.08755886 -0.039373297 -0.112232566 0.047508523
-0.07522919 0.039157595 -0.12213172 -0.0072286143 0.13822454 0.016327688 -0.11129686 -0.05683999

cnn.0.bias f4 [64]
00000000: 5e11 a83d e999 f8bd b7ac ecbd f598 d63d
00000010: 4826 f2bd 4fee 903d e9a5 f3bc 4373 37bd
00000020: 2c1a 47bd 4e0b 90bd d562 a43d 2eac e3bc
00000030: 54e0 ad3d f0f7 343d 81e9 3e3d 3b5d f3bd
00000040: 20c1 7f3d f321 00be 55c3 d1bd c9aa 453d
00000050: e634 933b 900f 1e3d 34c9 eabc 562d 0bbe
00000060: b8bd a7bd 514c 5abd 133a d0bc 48ec 5f3d
00000070: 2c77 f7bd e275 db3d 1ae3 ee3d bc09 febd
00000080: da18 ccbd bd78 f2bd 66ef 6a3d 6e4b 08be
00000090: 5f95 e23d 9351 023e b32e 14be 2c3b b63a
000000a0: 86d6 0cbe e3a4 c6bd 47db f03d b91c 903d
000000b0: e591 873d c353 273d 78c7 d6bc 6efc e6bc
000000c0: c3ab e03d 53a7 8b3d 0bf5 563d aba6 50bd
000000d0: 56fb b9bd 8f76 0fbe 61d4 863d c23c f8bd
000000e0: 7d24 15bd 6542 69bd c771 ab3d 46bb 863d
000000f0: e927 f23d 16fc ccbd a1dd 013d 8521 b93d
0.082064375 -0.12138731 -0.1155638 0.10478393 -0.11823708 0.07076704 -0.029742198 -0.044787657
-0.048608944 -0.07033406 0.08026663 -0.027792063 0.08490053 0.044181764 0.046609405 -0.11883017
0.062440038 -0.1251295 -0.10242335 0.048258577 0.00449239 0.03858906 -0.028660394 -0.13591513
-0.08190483 -0.053295437 -0.025418317 0.054668695 -0.12083277 0.10715844 0.1166441 -0.124042004
-0.099656776 -0.11839435 0.057357214 -0.13310024 0.110636465 0.1272643 -0.1447094 0.0013903133
-0.13753709 -0.096994184 0.11760574 0.070367284 0.06619624 0.040851366 -0.026218161 -0.02819654
0.10970261 0.06819024 0.052479785 -0.050940197 -0.09081142 -0.1401007 0.06583477 -0.12120964
-0.03641175 -0.056948084 0.08371311 0.06578688 0.118240185 -0.10009019 0.031705502 0.090395965

cnn.3.weight f4 [64, 64, 3]
00000000: e90a 423d d8bf 383d d054 4d3c 4ae0 063c
00000010: e927 33bd 8008 4ebd f78a 6bbd 0cc8 46bc
00000020: 2eae 193d e460 6bb8 5c28 863d 3aad 47bd
00000030: 573a d6bc 2c0c 0c3d 9dd8 483d d4d3 273d
00000040: 21c3 7ebd 4924 323c 8d08 ad3b c1a4 20bd
00000050: bb40 003d 3d3b ee3b fddb 70bd 942a 2bbb
00000060: dfb4 82bd c718 74bd 48c3 fc3c a0de c2bc
00000070: 5b9f 8e3d 504a d9bc daea abbc ed54 133d
00000080: 8cde 6e3d faf2 2ebd 6e64 2cbd fb26 84bc
00000090: c92d 0c3d 40e7 a9bb 63b0 e63d cf4b 2b3d
000000a0: c693 d33c a41a 66bd 6bd3 033d 067d 0f3d
000000b0: 7640 ddbc e3c7 443d 6fbe ae3c c374 dcbc
000000c0: 5077 68bd d904 9ebc 78d9 05bd c125 7dbd
000000d0: ee73 86bd ca77 833d 70db 5abc 834b 7fbd
000000e0: 6579 90bd e053 1cbd 4469 913c a044 453d
000000f0: 1334 8a3d ffc8 9f3c fada 8a3d 2578 9bbc
00000100: 0e31 473d 749c 8d3c 043d af3c 8c3d 05bd
00000110: 8848 933d d294 efbc 4816 e23c 0151 293b
00000120: 1b0a 3ebc 4fa3 dabc 01b3 663c 0885 b2bc
00000130: edf7 a2b9 3b77 d73c 7ca0 85bd bdf3 61bd
00000140: 7811 413d a133 823d b491 f9bb 3252 1cbc
00000150: e0e1 b53c c950 4abd 4b2e e23c 593f 8f3b
00000160: e72c 723c 7a8f 2dbd b6a8 49bd 8e3c 60bd
00000170: 89c5 eebc ad30 81bd 8c91 1abd 2e83 7f3d
00000180: 1587 35bd 783f 94bb 5403 f03b 61af 963d
00000190: 7891 82bd 9b00 b33b c388 7fbd 27ea 80bc
000001a0: 7b23 0bbc d266 803d 115d 85bd 58ad 91bc
000001b0: 7a0c 433b eb02 7f3d a0f6 6b3d 4c38 1dbd
000001c0: bb71 64bc 8c47 89bd b783 7ebd ef7f 8dbd
000001d0: 5751 813d c2fc 1f3d 8a7f 0cbd 6aae 223d
000001e0: 5a23 94bd a2b9 bf3c a155 e0bc a8e4 16bc
000001f0: dde2 933c beb1 db3b 6b27 8b3d 20e6 843d
00000200: b197 84bd 4194 97bc e5c9 9abd f608 0ebe
00000210: 584b 693d 6386 4d3d df02 513d bf10 de3c
00000220: 8de3 9cbc aace 4cbc 0d3a 303d 7b24 943b
00000230: ebcc 0ebd e7a1 af3c 6d26 c9bc ae29 123d
00000240: 6868 753c 32cd fdbb e1f9 453d 4c69 5d3d
00000250: 2dcd 303d 33de d73c b6cc 27bd 2959 863d
00000260: 59a9 75bd 0e46 fa3c 9840 8ebd 4879 323d
00000270: ed2a 823b 0f33 4abd 1fe3 203c da62 c43b
00000280: d3f1 6bbd 7dc8 73bd 030d e83c 2c34 74bc
00000290: 10ca bebc 7a74 643c 310d 4c3c 13d5 e0bc
000002a0: ce48 2dbd e8ff 003d 5c14 89bd 07b8 923d
000002b0: e5e8 233d 6d76 c83d c928 f1bb f1a6 ae3c
000002c0: 60dc 823d a05c cd3b ee38 203c 7a2a 7c3d
000002d0: 096d 163d 313c 3c3a 2c28 37bd acbc 503d
000002e0: c4dc 3dbd e684 153d e2ad 90bd 4f20 1cbd
000002f0: 99fa ccbd 8649 093d 3be9 24ba dfa5 523d
00000300: 31a9 46bd 9072 643d bada 573b cabb 153d
00000310: 5d10 7ebd be22 403d 5bc3 0e3c 8dd8 a4bb
00000320: 4394 8c3b 3806 363d e5d7 813d 8435 693c
00000330: 531a 4cbd b3f9 77bd 5631 4a3d 3031 7dbd
00000340: 00c4 febc 9432 063c 5624 533d 21fc 7a3d
00000350: 22bd f53c 6d74 543c 1317 843d 1152 9fbc
00000360: f7f5 353c 6ec0 07bd 4150 e5bc 5ab1 b03d
00000370: 40c0 5a3c 967f 243d de92 28bd 0cc3 78bd
00000380: a855 dc3b c2e5 6f3c 275f 033d e0cd 723d
00000390: b72c e53c 0575 4c3c 9658 943c 1cb0 c9bc
000003a0: 8a25 883d cf3c 073b 3f0c 8f3d 016f 0cbb
000003b0: 02ae 023c 24df 6bbd 56c7 2fbd 1837 8e3c
000003c0: acbb a33c d7c1 b4bc ba76 3b3d 3d47 823d
000003d0: 7dee 8e3d 9084 9f3a 572a 2fbd 010c 14bd
000003e0: 4f75 1d3d e44a 64bd 2870 8b3a 8cc9 623d
000003f0: ac3a 943c 1127 8e3d a19e 9d3c 2b5d 213d
0.047373686 0.04510483 0.012532428 0.008232186 -0.043739233 -0.050301075 -0.057505574 -0.012132656
0.037519626 -5.6118603e-05 0.06550667 -0.048749186 -0.026150865 0.034191296 0.049034704 0.0409735
-0.06219781 0.010872909 0.0052805603 -0.03921962 0.03131173 0.0072702453 -0.058803547 -0.0026117908
-0.06382155 -0.059593942 0.030854836 -0.023787796 0.069639884 -0.026524693 -0.02098601 0.035969663
0.058317706 -0.04271219 -0.042087965 -0.016131869 0.03422335 -0.005185038 0.11264112 0.041820344
0.0258273 -0.05617775 0.032184046 0.03503134 -0.027008276 0.04804219 0.02133104 -0.026911145
-0.05675441 -0.01928942 -0.032678097 -0.061803583 -0.065650806 0.06419332 -0.013357982 -0.062327873
-0.07054404 -0.038165927 0.01775039 0.04816115 0.067482136 0.019505022 0.06780048 -0.018978188
0.048630767 0.017286517 0.0213914 -0.0325294 0.071915686 -0.029245768 0.027598515 0.0025835636
-0.011599089 -0.0266892 0.014080764 -0.02179195 -0.00031083767 0.02630197 -0.065247506 -0.055164088
0.0471358 0.06357504 -0.007616246 -0.009541081 0.022202432 -0.04939345 0.027609965 0.0043715653
0.014781213 -0.042373158 -0.04923316 -0.05474525 -0.029146926 -0.06308112 -0.03773646 0.062380962
-0.044318277 -0.0045241676 0.0073246155 0.073576696 -0.06375402 0.0054627187 -0.062386286 -0.015736653
-0.008492346 0.062696114 -0.06511892 -0.017782852 0.0029762075 0.062258642 0.057608247 -0.038383767
-0.013943131 -0.067030996 -0.06213733 -0.06909167 0.063143425 0.039059408 -0.03430132 0.039717115
-0.07233305 0.023403946 -0.027384581 -0.009209789 0.018052513 0.006704538 0.06794628 0.06489205
-0.06474245 -0.01850331 -0.075580396 -0.13870606 0.05695662 0.05017699 0.05102813 0.027107595
-0.019151473 -0.012500444 0.04302411 0.0045209504 -0.034863394 0.021439506 -0.024554456 0.03568428
0.014978506 -0.0077454085 0.048334006 0.054055497 0.04316442 0.02635107 -0.040966712 0.06559975
-0.059975956 0.030550983 -0.06945914 0.043572694 0.0039724023 -0.0493651 0.009819775 0.0059932293
-0.05760367 -0.059517372 0.028326517 -0.014905017 -0.02328971 0.013943786 0.012454317 -0.027445352
-0.04230576 0.03149405 -0.06693336 0.07164007 0.040017027 0.09788213 -0.0073595983 0.021319838
0.063896894 0.0062671453 0.009779198 0.061563946 0.036725078 0.00071806 -0.044716045 0.05096118
-0.046353117 0.036503695 -0.070644155 -0.03811675 -0.10008735 0.033517383 -0.00062908576 0.05142772
-0.048501197 0.055773318 0.0032936768 0.036556043 -0.062027324 0.046908133 0.008713569 -0.0050306977
0.004290135 0.044439524 0.06340007 0.0142339505 -0.049829792 -0.060540866 0.049363457 -0.061814487
-0.03109932 0.00819077 0.051548325 0.061275605 0.029997412 0.012967211 0.064497136 -0.019448312
0.011106006 -0.0331425 -0.02799237 0.08627577 0.0133515 0.040160738 -0.04115569 -0.060732886
0.006724078 0.014642181 0.032073166 0.05927837 0.027975423 0.0124790715 0.018108647 -0.024620108
0.06647785 0.002063561 0.06984758 -0.0021428468 0.007976057 -0.05758585 -0.04291471 0.017360255
0.01998695 -0.022065086 0.045767523 0.06361244 0.06979082 0.0012170244 -0.042764988 -0.03614426
0.038441952 -0.055735484 0.0010638284 0.05536799 0.018094383 0.06941045 0.01924068 0.039395493

cnn.3.bias f4 [64]
00000000: e9ba 4bbc d4a7 20bd b2d8 3bbd 56a6 29bd
00000010: cfa6 5abd e480 8e3d 0d57 85bc 6d4f 8d3c
00000020: 7995 31bd 2307 87ba c28b aabd fecd 063c
00000030: bd9f 743d 7b62 8e3d cc02 10bd 855d 0abd
00000040: 46f5 9e3d 49dd 9c3d cfc5 3a3d ce34 4ebd
00000050: 234f 2ebc 26bf 7a3d f66d 4ebd cf29 193b
00000060: 9025 8fbd 8260 e03b ab04 9c3c 6ae5 443d
00000070: 03b0 563d e7b5 17bd 4615 5e3c 07e8 efbc
00000080: adec d7bc 0641 ebbc 9a95 63bd 5654 873c
00000090: c887 ba3c 23e1 8cbb c013 32bd 512a 4dbd
000000a0: 7b44 043d 8a5e 54bd 6c85 853d dae4 b63b
000000b0: 1fe7 823d c597 23bd f12c 32bd 7eb2 a8bb
000000c0: 72a8 0d3d 6f93 49ba b859 213d 43c1 d53c
000000d0: bf9a 013d bfa8 18bd 5767 0fbc e72d a13c
000000e0: 73f4 69bd cc85 38bc 67df 6fbc 3433 783c
000000f0: ccd9 0c3d af33 c23c e09c 5fbd 80c4 efbb
-0.0124347 -0.039222553 -0.045860954 -0.041418396 -0.053381737 0.06958178 -0.01627686 0.017249787
-0.04335544 -0.001030181 -0.08327438 0.008227823 0.05972265 0.069523774 -0.035158917 -0.033780593
0.07761626 0.07659394 0.0455988 -0.050343327 -0.010638985 0.06121745 -0.050397836 0.0023370867
-0.06989586 0.006847442 0.019045195 0.04807035 0.05241395 -0.03703871 0.013554877 -0.029285444
-0.026357973 -0.028717529 -0.055562593 0.016519707 0.022769824 -0.0042992993 -0.043475866 -0.050089184
0.03229187 -0.051847972 0.06519589 0.0055814805 0.06391739 -0.03993966 -0.04349989 -0.005148231
0.03458447 -0.0007689511 0.039392203 0.02609313 0.031641718 -0.037270304 -0.0087526655 0.019675208
-0.05711789 -0.011262368 -0.014640666 0.0151489265 0.034387395 0.023706285 -0.054592967 -0.007317126

lstm.weight_ih_l0 f4 [512, 64]
00000000: f0ab 07bd ca09 39bd 3b05 cfbb d441 5cbd
00000010: 6abe c9bc 8582 813d 984e 7abd 3562 213c
00000020: 9ea2 9bbc f55f 313d 0c2e 1e3c 87e1 6cbd
00000030: 7ed1 53bd dd1a 863c 861c 7abb 869e 583d
00000040: b193 d93c a471 8e3c 5309 90bd aa8a e83c
00000050: 7d13 70bd 386b 653d c1ab 9dbd 3f2e 4ebd
00000060: 5c9f 643d 966c 10bd ca86 7ebd b6c2 ae3c
00000070: 20a1 28bc 4cd0 093d dadb 113d f347 c83b
00000080: e10a 80bd 7c92 00bc f9dd 11bd 123b a83d
00000090: e38f 8abd 6545 2cbd 46fd a3bd 20e7 8dbc
000000a0: 3a4a a13d 07cb d93c 1e82 79bc a932 4dbd
000000b0: 8dc0 74bc 18d5 293d a7fa 06bd fb4e b33d
000000c0: 8d7c bb3d 4139 4f3d 6473 05bd 2511 dd3b
000000d0: 45c5 0dbc bbe2 143b 0ace 313d 6845 86bd
000000e0: 9400 09bd 2275 b2bc 8532 48bd a8db c1bb
000000f0: 7b52 88bd 47b7 11bd f7c4 36bd 9781 75bb
00000100: 6b36 573d 8d81 99bd fd59 583d d57d 113d
00000110: e9aa a2bd 7a05 f83b 2d4d 903c 5644 92bd
00000120: 7aa7 55bd a9ea 7a3d 9b3d b23c a216 4dbc
00000130: e4f0 953d 50e9 9e3d 63e0 b039 4f73 b13d
00000140: 5412 c73d d5ef 893d 47a6 b1bc 03d6 4cbb
00000150: 1284 553d d55b eabc 0126 2b3d 4ce8 263b
00000160: a9c6 8cbd 084b 5cbd 62f2 1dbd ea7b 943d
00000170: 6cc7 6b3d b67f 803c f49b 02bd 3fc4 673d
00000180: 9cf4 a73c 97a8 c83c 9a8e 92bd 5622 e6bc
00000190: 2535 d1bc 16e3 df3b c29f 46bd 7006 8dbd
000001a0: b614 87bd c1e1 d33d d4ff ce3c 45ba 6fbd
000001b0: 2474 053d e727 c23c 0b50 953d d125 c13b
000001c0: 7f4b a93d cacb 443b c812 683d 8987 54bc
000001d0: 6999 03bd 6027 80bd 0f1e 2f3d d140 d8bb
000001e0: 3255 a7bc 124a 213d 8446 2f3d eb77 e3bb
000001f0: f5ed 90bd 41f6 ccbd 19df 0fbd c8f0 543b
00000200: f110 a73d f771 7e3c a001 10bd b8e0 a4bd
00000210: 5100 423d bf9c 453d 13e9 613d 3096 10bc
00000220: bfb8 91bd fce0 c4bc be66 9a3c f9f0 b73d
00000230: 778e 683c ee4d 12bd 2ebc 76bd 2530 c73d
00000240: 9907 123c 7a59 adbb 3880 923d 45ac 873d
00000250: ef09 6e3c 0dc4 bd3d 9b08 8cbd baaf 57bd
00000260: bed6 6a3d ed30 abbb 6638 5f3c 9381 523d
00000270: 6318 653b 9875 5dbd 409d 72bb 3370 253c
00000280: 385f 87bc 0448 f93c 5acf c13d 6952 813c
00000290: 2e79 153d 6a05 a8bd c4fd 453d c80a 963c
000002a0: 114f 89bd eeb7 85bd 763e 403d aba5 2f3d
000002b0: 0ffd 78bd dbd3 1fbd 9f05 193d 2240 9c39
000002c0: e346 943d 6e78 0fbd 1709 423c 2664 35bd
000002d0: 7e29 b83c ffb8 d83c 4fec b03d 334f 593d
000002e0: 1228 8ebd bc28 8b3d a1f9 95bc 948f 09bd
000002f0: 02e3 08bd c371 1f3d 09ac 203d 3f81 8bbd
00000300: 5d8e 203c f0fe 10bd 519c 933d 96c3 61bd
00000310: 3596 80bd d203 00bd 97f7 783d c018 493d
00000320: c64b 30bd bafb 15bd 72d8 933d 6fa9 863c
00000330: 2061 233d c822 913a 2c96 84bc 78d5 a43d
00000340: da9e f63b b47c 283b 117f 58bb 7cb6 c4bc
00000350: 3b63 3e3d a3e1 cabc f4ec fd3c 8589 26bd
00000360: 5421 90bd c588 e1bc b2fc 6d3d cee7 59bd
00000370: f4b6 17bc 7b19 86bd de2d 9b3d 56c4 e0bc
00000380: 7aa7 143d fa2c 32ba d128 783d 672b 933d
00000390: 634d 41bd 6712 753d f88e c33d 1957 893d
000003a0: 9120 be3c f02a 353d 70dc 2ebc 5ab4 fabc
000003b0: 6033 56bd 4b2c 5b3d 3ad9 8cbd 92f9 a0bd
000003c0: d203 00bd f082 093d 29a2 a2bb 5b56 05bd
000003d0: a524 743d 468b 37bd 7b16 d6bc 93fe 30bd
000003e0: d923 2abd c0d2 8a3c 1572 efbc e3ee 953d
000003f0: d5b6 0abd 9110 903d f985 8f3d bd5d adbd
-0.033122957 -0.04517535 -0.006317762 -0.053773716 -0.02462693 0.06323723 -0.06111011 0.009850075
-0.01899844 0.043304402 0.009654533 -0.057832267 -0.05171346 0.016370231 -0.0038163974 0.052885555
0.026559683 0.017388172 -0.070330285 0.028386433 -0.058612335 0.056010455 -0.07698775 -0.050337072
0.05581604 -0.035259806 -0.062140264 0.02133308 -0.010292321 0.033645913 0.035610057 0.0061120926
-0.06252075 -0.007847425 -0.03561208 0.08214392 -0.067657255 -0.042058367 -0.080072924 -0.017322123
0.07875486 0.026586069 -0.015228776 -0.05009714 -0.014938486 0.041462988 -0.032953884 0.08755299
0.091546156 0.05059171 -0.03258075 0.0067464286 -0.00865299 0.002271815 0.043409385 -0.06556207
-0.033447817 -0.021784369 -0.048876304 -0.0059160776 -0.06656357 -0.035575178 -0.044621434 -0.0037461275
0.05254213 -0.07495413 0.052820195 0.035520393 -0.07942755 0.007569012 0.017614925 -0.0714194
-0.05216167 0.061258946 0.021757891 -0.012517603 0.07321337 0.077593446 0.00033736517 0.086645715
0.09720293 0.067351975 -0.021685733 -0.003125549 0.052127905 -0.028608242 0.04178429 0.002546805
-0.06873829 -0.053782493 -0.038561232 0.07250197 0.05756323 0.015685897 -0.03188701 0.05658364
0.020502381 0.024494452 -0.07156105 -0.028092545 -0.025538037 0.0068324907 -0.0484922 -0.068859935
-0.06595747 0.103457935 0.025268473 -0.05852725 0.032581463 0.023700668 0.072906576 0.0058944006
0.08266353 0.0030028694 0.056658536 -0.012971767 -0.032128725 -0.0625751 0.042753275 -0.0065995236
-0.020426366 0.03937728 0.04279186 -0.0069417856 -0.07076637 -0.10007907 -0.035124872 0.003249215
0.08157528 0.015530101 -0.0351578 -0.08050674 0.047363583 0.048245188 0.055153918 -0.00882487
-0.07115316 -0.024033062 0.01884782 0.08981509 0.0141941225 -0.03571885 -0.060238056 0.0972598
0.008912944 -0.0052902075 0.07153362 0.06624655 0.014528736 0.09265909 -0.06837579 -0.05265782
0.0573337 -0.0052243383 0.013624286 0.051393103 0.0034957163 -0.054067224 -0.0037019998 0.010097551
-0.016524896 0.030429848 0.09463377 0.015786367 0.03649252 -0.08204158 0.048337713 0.018315688
-0.06704534 -0.065292224 0.046934567 0.042882603 -0.06078821 -0.0390204 0.037358876 0.0002980242
0.07240083 -0.03502696 0.0118429875 -0.044284962 0.022480723 0.0264554 0.08638822 0.053054046
-0.069412366 0.06794879 -0.018307509 -0.033584192 -0.033419617 0.03892685 0.039226566 -0.06811761
0.009799567 -0.035399377 0.07207549 -0.055118166 -0.0627865 -0.031253643 0.060782995 0.04909587
-0.043041013 -0.03661702 0.07219018 0.016438214 0.039887547 0.0011072988 -0.016184889 0.080485284
0.007526261 0.0025709094 -0.0033034722 -0.024012797 0.046481352 -0.024765795 0.030996777 -0.040658493
-0.07037607 -0.027531037 0.058102317 -0.05319958 -0.009259928 -0.06547829 0.07577108 -0.02743737
0.03629253 -0.0006796863 0.0605858 0.07186013 -0.047192942 0.059832003 0.095487535 0.06706066
0.023208888 0.0442304 -0.010672674 -0.030603576 -0.05229509 0.053509038 -0.0687737 -0.07860102
-0.031253643 0.033572137 -0.0049631787 -0.032553058 0.05960526 -0.044810556 -0.026133766 -0.04321153
-0.041538093 0.016946197 -0.029229203 0.07320955 -0.03386577 0.0703441 0.07007975 -0.08465145

lstm.weight_hh_l0 f4 [512, 128]
00000000: b695 e5bc 21c2 7d3d 865c a23d 1b30 5ebc
00000010: 55be fd3c 4bb6 4f3d 4881 ad3d 24ce 54bd
00000020: 3489 213d 981a a33c 0aa0 a73d d120 7cbc
00000030: 89f6 82bd b615 01bb 600a 7b3c c408 3abd
00000040: a02b 963d 4372 82ba b9bf 593d 29fd ae3c
00000050: 2b35 0b3d 017a a3bc 65fa 0f3d 5c90 4bbd
00000060: 563b dd3c 0528 c73c 46af 7b3d 0607 b9bc
00000070: 6c4d b13d 8310 833d 1ce2 143d 60ec 743d
00000080: 9281 8bbd ef71 60bd d270 b7bc 8beb 26bd
00000090: 61e5 123d c758 6f3c dc62 683d be51 3bbd
000000a0: 73ee 523d 2fd7 083c 0400 c43d 3fac 3c3d
000000b0: 106f a73d ca06 4b3d 0de2 d1bc e743 fc3c
000000c0: 2b22 77bd e5ae 37bd dd67 9d3b 2f65 b03d
000000d0: b279 98bc e485 c5bc 1df0 0cbd d32e 343d
000000e0: 76c2 83bd d18c 9dbd 5be3 643c 89f6 82bd
000000f0: b9a8 82bd f021 babb 50b5 603d 7860 ab3c
00000100: 562e 893d d779 acbd 73d1 403d 1e07 ec3c
00000110: eb23 a7bc 059e 123d 7b80 95bd cef6 743c
00000120: 00f8 33bc 7cbd 463c 25d4 993d f2dc 523d
00000130: 62ef debc cf34 b4bd c278 623d 0517 aa3d
00000140: f970 abbd eae4 903a 1fe2 c3bb 9b80 8ebc
00000150: 6a20 a1bc c26b 28bd 1e77 513d 4a1c 113d
00000160: 53e8 8ebd cde2 803d 1492 08bd d377 b23c
00000170: 8849 49bb eadb 913d b8cb 81bd 1119 3e3d
00000180: 674d a4bd a807 a1bd 7e22 0ebc f253 503d
00000190: e992 a5bd ad17 883d 6f18 1d3d 45f6 aabd
000001a0: c0bf 0dbd 60f6 873d af71 763d b0db 973d
000001b0: b8c7 813d 9a1b 273d c369 323d dddc dabc
000001c0: 503a 90bd 796f 843d 88da 283a ada3 0c3b
000001d0: e10a abbc ad31 953d c3b4 3ebc 919a 47bd
000001e0: 5b67 24bc 32eb 7e3d a08a 963c bc71 953d
000001f0: b030 963b eee4 823d 92d9 99bd dfba c8bc
00000200: 7d76 15bd 7365 b03d 3438 a7bc 5c6f f3bd
00000210: b55e 24bd a928 863d aada 7a3d 3814 29bd
00000220: b100 a0bd 458e 1cbd 43c2 203c f87a 0ebd
00000230: 0bb7 90bd effc a8bd 7c64 943d 10d3 4d3c
00000240: ec5e f53c 7b08 853d a161 49bb d795 d3bc
00000250: 3a9b 2d3c 35ff 6cbc e76f 6a3d 0339 52bd
00000260: affb 623d 347c 713b a4a2 1cbd 4d40 15bd
00000270: 7749 a4bc f9af b1bd cc76 403b 8616 8ebd
00000280: b9de 14bd fc1e 92bc 15bc 01bd 8b4e eabc
00000290: 4d09 b0bb 1b8a 8fbd d92c 553c 3e51 ac3d
000002a0: a3ce 6fbd 405b 2fbd 77ef f83c a8b2 afbd
000002b0: b421 5abd 238b 6e3d 5f17 5c3d 0b1b 81bc
000002c0: ab03 66bd ca2c 833d df2a aebd c7ce 6c3d
000002d0: 94b9 4cbd 83c2 ec3d e748 ac3c 7b30 bd3d
000002e0: 7d77 1d3d 3333 a13c 3ce9 a93d daa9 9abd
000002f0: 2664 13bd deb1 8b3d 07c0 8a3d 1cd3 92bc
00000300: 9e96 9b3d cee4 acbd 83c1 253d 907f 183d
00000310: 3c91 ab3d 56f2 3f3c f68c 8cbd c128 61bd
00000320: cb5e 22bc f44f 86bd 50e4 c93d 7e5f a13d
00000330: 3ebe 713d 7f48 50bd 4086 3abd 7472 e737
00000340: 88bf 6abd 96a4 dbbb f861 33bd 8863 3cbd
00000350: 9b90 c63d 74b5 58bd 97d1 a33d eccc 003d
00000360: 2a7c 0e3d 9843 0fbd c148 85bd aa9a 9b3d
00000370: a24a c9bb 70f1 97bd 9dba 0bbd b961 033d
00000380: 6ce0 173d d742 b33d bc33 b2bd 53f1 a5bd
00000390: 93d1 933c eaa4 05bd 2586 2b3d e220 43bd
000003a0: c655 723d 2b62 58bd c7cb 143d 770e d13c
000003b0: a04b bd3d 7699 74bd 47a5 a1bd e686 85bd
000003c0: 22f7 2a3d 3608 573d fd07 8bbc 4f07 ca38
000003d0: 9717 2c3b dc6d c03d 3953 36bd bf42 4fbc
000003e0: aab5 a9bc 0d25 5fbd b30e 1cb9 a8ef 9ebd
000003f0: dd65 c73c 2666 063d df0b 11bd 8c27 9ebd
-0.02802549 0.061952714 0.07927804 -0.013561274 0.030974546 0.050710957 0.08471924 -0.051954404
0.039437488 0.019910142 0.08184822 -0.015388683 -0.06394679 -0.0019696779 0.015322298 -0.045418516
0.073325396 -0.0009952266 0.053161357 0.02136095 0.03398625 -0.019955637 0.035150904 -0.04969822
0.027005833 0.024311075 0.06144645 -0.022586357 0.08657345 0.06399634 0.036348447 0.059795737
-0.06811823 -0.054796156 -0.022392664 -0.040751975 0.035863284 0.0146085685 0.056734905 -0.045732252
0.051496934 0.008352085 0.095703155 0.046062704 0.0817548 0.04956702 -0.025620485 0.030794097
-0.06033532 -0.044844527 0.0048036412 0.08613049 -0.018612716 -0.024111696 -0.034408677 0.043989968
-0.06433575 -0.07692874 0.013970221 -0.06394679 -0.063798375 -0.005680315 0.054860413 0.020920023
0.06698291 -0.084216766 0.047074746 0.028811987 -0.02040287 0.03579523 -0.07299896 0.014951421
-0.010984421 0.0121301375 0.075111665 0.05148024 -0.027213756 -0.08799135 0.055290945 0.08305172
-0.08371157 0.001105455 -0.0059778835 -0.017395308 -0.019668777 -0.04111839 0.05113899 0.03542737
-0.06977906 0.06293259 -0.033342436 0.021785652 -0.0030713994 0.071220234 -0.063376844 0.046410624
-0.08022576 -0.078627884 -0.008675216 0.050861306 -0.080846615 0.06645141 0.03835338 -0.083477534
-0.034606695 0.06638789 0.06016701 0.07414949 0.063369215 0.040797807 0.043557893 -0.026716644
-0.07042372 0.06466574 0.0006441255 0.0021459863 -0.02087921 0.072848655 -0.011639777 -0.04873139
-0.0100344075 0.06223602 0.018376648 0.07297084 0.0045834407 0.06391321 -0.07512201 -0.02450317
-0.036489952 0.086131 -0.020412542 -0.118864745 -0.040129382 0.06550724 0.06124369 -0.041279048
-0.07812632 -0.038221616 0.009811941 -0.03478524 -0.07066163 -0.08251368 0.072457284 0.012562528
0.029952489 0.06495758 -0.0030728357 -0.025828285 0.010596091 -0.014465143 0.057235625 -0.0513239
0.055415805 0.0036847712 -0.038241044 -0.036438275 -0.020054562 -0.08676142 0.0029367683 -0.0693789
-0.036345217 -0.01783704 -0.03167351 -0.028601905 -0.0053722025 -0.070087634 0.013011181 0.08413933
-0.058546674 -0.042811632 0.030387623 -0.08578998 -0.053254798 0.05823816 0.053733226 -0.015759965
-0.05615584 0.06405027 -0.08504271 0.057814386 -0.04998167 0.11560538 0.021030856 0.092377625
0.03844403 0.019677734 0.08296439 -0.07551928 -0.03598418 0.06821035 0.067749076 -0.01792293
0.07597087 -0.084420785 0.04046775 0.037231028 0.08377311 0.011715492 -0.06862824 -0.054970507
-0.009910296 -0.065582186 0.09858 0.07879542 0.05901932 -0.050850388 -0.045538187 2.7590642e-05
-0.057311565 -0.00670297 -0.043794602 -0.045993358 0.0969555 -0.052907422 0.079989605 0.03144543
0.03478638 -0.03497657 -0.06508017 0.07597859 -0.00614293 -0.074190974 -0.034113515 0.032075617
0.03707926 0.08752983 -0.08701274 -0.081026696 0.018044269 -0.032627977 0.041875977 -0.04763878
0.05916383 -0.052827995 0.03632715 0.025519593 0.0924294 -0.059716664 -0.07892852 -0.065198705
0.04173959 0.052498065 -0.016971583 9.633472e-05 0.0026259178 0.09395954 -0.04451296 -0.012650191
-0.020716507 -0.054478694 -0.00014882795 -0.077605546 0.024340564 0.03281226 -0.03541171 -0.07722387

lstm.bias_ih_l0 f4 [512]
00000000: a003 c2bb f80e 4a3c ac53 433d 3b54 d03c
00000010: a018 873d 419b 22bd 4c7e 8abd c8cc 593d
00000020: b550 8a3d 69c2 32bd 4341 963d dcb3 84bd
00000030: 2b23 043b dfbc 283c e292 ad3c 6a73 b33d
00000040: dc64 13bd a1a1 a43d 9d94 5ebb 5cfd 79bd
00000050: aae7 b93d b9b5 c13d fa81 eebc aeaf 43bd
00000060: d888 603d 4079 89bd b06a 7ebd e516 a0bc
00000070: 6312 2c3d 716f 1b3d 167e 6dbd 800c 323d
00000080: 61e9 85bd 6bdd 523c ceb3 d63c d0df 28bd
00000090: e2c8 9ebd 64ef 223d 6c45 bbbc d790 94bd
000000a0: 3814 4b3d 9b37 a4bd 44bf ae3d 8b0b 48bd
000000b0: 61fa 623d d480 24bd 7678 1cbd 55ff ca3d
000000c0: ad66 4cbd 284d 8abd c3af 3bbd 4a49 993d
000000d0: 2063 763d 40a1 a03d 9dff a6bc aa55 643c
000000e0: 3fac 24bd 4f95 83bd 5e4e 6fbc 2922 213d
000000f0: ecd8 43bd 5f51 79bc 8296 1e3c 5d6b a6bd
00000100: bb78 8cbd 0fe1 b73d 5277 7f3b 1baf 2b3d
00000110: d8e9 b23d 1217 7a3d 86b7 0b3d 0d83 d3bb
00000120: 7482 a9bd 6641 c23b 1745 34bd 1ada 63bb
00000130: 6224 a03d c3ea 25bd 85b7 0a3d c46a 33bc
00000140: 3c05 8a3d 44d3 39bd 4fb8 9d3d ae35 1abd
00000150: 21e4 023d ded5 2dbc 685e 293d 0a86 813d
00000160: ef61 1dbd 6378 33bc 3040 323d cf31 9a3c
00000170: d715 493d 529f 763d c73c e93b ef22 c83d
00000180: 2ebb f0bc 9020 cc3d 2b64 73bd 88a5 f4bc
00000190: 8e9a 63bd e63e c6bc 0235 1fbd 5e3f dc3b
000001a0: 1353 fdbc 5bac 31bd e4bc 6eba 30ea 453c
000001b0: ebc3 40bd 93b0 913d 2b5a 87bd 1bd7 ccbc
000001c0: d3b5 f13b d94e 233d b9ba a63d 5edf 07bd
000001d0: 18d9 80bd 3704 413d 301d 27bd cbcb 56bd
000001e0: 38b9 5a3d 29fe 7e3c 6fce c0bb d2ef ddbb
000001f0: 6c61 06bc d7a2 8dbd b793 da3c df77 04bd
00000200: d454 9dbd fe2c 8e3d f619 5f3a f89c 833d
00000210: 69f1 6e3d 6ee2 8fbd f087 f7bc 2e04 76bd
00000220: 46f1 e7bc 1dae bd3d fcf8 933d c044 953d
00000230: 80c3 923b 624f a83c 2405 88bd 0553 873d
00000240: 4de0 15bd 2e18 353d 8617 a83d 36db 2b3d
00000250: 2d47 983d b095 c83d de23 1f3d b4e0 84bd
00000260: 7e0f 71bd a1c1 2bbd 6a48 463b b52e 2c3d
00000270: 2b25 e9bc 9820 2fbc 7eab d0bc 17e0 ed3c
00000280: 8f42 78bc 19b6 5ebd bb77 1c3b 2f45 513b
00000290: cab3 5ebd 53ae 9b3d 1c27 c63d 2cdc 853d
000002a0: d2d5 14bd 5465 c1bc 38f0 4ebd 7cac 2e3d
000002b0: be30 dd3d 57a1 5fbd 925f 8abc 0dad 603c
000002c0: 4c20 36bd 3e8e 9abd 46db 1e3d cbb4 86bd
000002d0: 23ac a73d 7fe1 0f3d 8337 b33c df08 1dbd
000002e0: bd87 9ebd ccd3 9cbc d25e 373d 5fee 3a3d
000002f0: 32bc 0fbc c125 0f3d 3189 9dbd 1d39 6d3c
00000300: 692d 4d3d f22a 87bd 4891 a13d f021 35bd
00000310: 4d6b 423d 7ffa c73a d41f f5bb aa02 953d
00000320: 1291 ae3d 8584 85bd ef98 1ebc de2e 50bd
00000330: 3e24 0ebd ff5e 703d 6cff 0f3d 34e3 7a3d
00000340: 85ca 21bc 6794 85bd 35ef 74bc 46fb 59bd
00000350: 8020 323b 9233 1e3d 5ff7 133c c172 a4bd
00000360: 520f 55bd f5fa 19bd fd92 983d 1961 8c3d
00000370: eddc 8f3d dbc0 223c 8440 a3bd 46f8 713d
00000380: 3b62 b83c 8575 8fbd 0d8a 253d c6c1 62bc
00000390: 65a8 f13c b86a a4bd e8fa e3bc 7772 7e3d
000003a0: d539 193d 6967 8ebc 1a3a 8cbd 3938 e33c
000003b0: 274b 0dbc 5ce9 cc3d c147 553d 4b5e 65bd
000003c0: 607e 9cbd 79fc 583d cb41 843d afa3 af3c
000003d0: 2b68 4dbd 0f55 8c3d c327 0cbd 5001 133d
000003e0: bab2 b63d ac85 443d 08c5 afbd d818 8b3d
000003f0: 203f 7ebc 6c30 96bd babe 373d df3a b33c
-0.0059208423 0.01233267 0.047687218 0.02543079 0.06596494 -0.039698843 -0.067623705 0.05317381
0.06753675 -0.043642435 0.073366664 -0.06479618 0.0020162563 0.010298937 0.021188203 0.08762248
-0.03598486 0.08038641 -0.0033963092 -0.061032638 0.090773895 0.09458489 -0.029114712 -0.047774963
0.054818004 -0.0671258 -0.062113464 -0.019542167 0.042009722 0.037948076 -0.057981573 0.043468952
-0.06538654 0.012870173 0.026208784 -0.04122907 -0.07753159 0.039779082 -0.022860251 -0.072541885
0.04957983 -0.080184184 0.08532575 -0.048839133 0.05541456 -0.040161923 -0.038200818 0.09911982
-0.049902607 -0.06752998 -0.045821916 0.07484682 0.060153127 0.07843256 -0.020385558 0.0139364395
-0.04020333 -0.06424963 -0.014606087 0.03933922 -0.047814295 -0.015217154 0.009679439 -0.08125947
-0.06858965 0.089784734 0.0038981033 0.04191504 0.087360084 0.061057158 0.03411057 -0.0064548315
-0.08276835 0.0059282063 -0.0440112 -0.003476745 0.078194395 -0.04050709 0.033866424 -0.010950748
0.0673928 -0.045367494 0.0770117 -0.03764885 0.031955842 -0.010610072 0.0413498 0.06324394
-0.038423475 -0.010953995 0.043518245 0.018822579 0.049093094 0.060210533 0.007117841 0.09772288
-0.02938613 0.09967148 -0.0594217 -0.029864088 -0.055567317 -0.024199914 -0.03886891 0.006721421
-0.030923402 -0.04337726 -0.00091071264 0.01207976 -0.047061842 0.07113757 -0.06608995 -0.025004914
0.0073764115 0.039870117 0.08141083 -0.033172004 -0.06291407 0.04712316 -0.04079932 -0.052440446
0.053399295 0.015563526 -0.005883984 -0.0067729736 -0.008201938 -0.06915825 0.026681764 -0.03234088
-0.07682195 0.06942175 0.00085106434 0.06426424 0.058335695 -0.0702561 -0.030216187 -0.06006258
-0.02831329 0.09261725 0.072252244 0.07288504 0.004478872 0.020545665 -0.066416055 0.066076316
-0.036590863 0.044212513 0.08207612 0.041957103 0.07435451 0.097941756 0.038852565 -0.06488171
-0.058852665 -0.041932706 0.0030255564 0.04203673 -0.028460106 -0.010688923 -0.025472399 0.029037518
-0.015152588 -0.05437288 0.0023875076 0.0031932106 -0.05437068 0.07601609 0.09675428 0.06536135
-0.036336727 -0.023607887 -0.05052206 0.042644963 0.108003125 -0.054597225 -0.016891275 0.0137131335
-0.044464394 -0.07546662 0.038783334 -0.06577452 0.08187129 0.03512716 0.021877056 -0.03833854
-0.07740734 -0.019143961 0.044768162 0.045637485 -0.008772897 0.034948114 -0.07692183 0.014478949
0.050092135 -0.06599988 0.07889038 -0.04422182 0.04746561 0.0015257149 -0.007480601 0.07275899
0.08523764 -0.06519417 -0.009680017 -0.050825946 -0.034702532 0.058684345 0.0351557 0.061251834
-0.009874945 -0.06522446 -0.0149496095 -0.05321815 0.0027180016 0.0386234 0.009031146 -0.080297
-0.052016564 -0.037592847 0.07449911 0.068544574 0.0702456 0.009933676 -0.0797129 0.059074663
0.022507777 -0.07004837 0.04041486 -0.0138401445 0.029499242 -0.080281675 -0.027829602 0.06212088
0.03740867 -0.017383294 -0.068470195 0.02773677 -0.008623875 0.10005447 0.052070383 -0.055998128
-0.076412916 0.05297515 0.064578615 0.021440355 -0.05014817 0.06852161 -0.034217607 0.035889924
0.08920808 0.047979042 -0.085825026 0.06791848 -0.01551798 -0.073334545 0.044859625 0.021878658

lstm.bias_hh_l0 f4 [512]
00000000: a06d 8abd b9a8 a53d befb 933d 5378 66bd
00000010: 56a1 ac3d e33e 8fbd fec4 0f3d c805 e53c
00000020: c209 86bd cf65 ba3d 4ef9 e33c 5148 833d
00000030: 8e2d 6a3d 6ca8 f3bc 9cbf 38bc f319 733c
00000040: 5080 cabb bfda 833b 4e29 f0bb 84a8 aa3d
00000050: 5533 713c 0f13 b63d 79fd 053d 6ad2 26bd
00000060: dc78 ed3c 7a75 753d 531b 81bd 8b00 073d
00000070: 33ef 8ebd 220f 273c 4231 4bbd 195b 8bbd
00000080: 27ed ab3d cb8a 773c 258a a43d db10 ba3d
00000090: 5ff7 f33b 4795 aebd 502e 31bd fcd8 7cbd
000000a0: 3047 7bbd df2e 8cbd c7c7 8a3d 9ac2 9c3d
000000b0: 55ce b83d 1bdb a5bd dacf aa3d 2e58 33bb
000000c0: 1982 4abd 9512 75bd 2232 08bd 0fb1 6dbc
000000d0: b8e4 283d ac91 853d 8bdc 33bb 2b5e 2ebd
000000e0: 58c4 fb3b dc5c c6bc bfc2 763d cb76 fb3b
000000f0: 7cd1 cdbb 5110 8a3d 045a 963d e3fd 8cbd
00000100: 4f9c 91bd a37a 0abc cc74 c13d 56bb 71bd
00000110: 97b8 1e3c 9e5e 7bbd 5e9f a03d 8627 53bd
00000120: bad5 0abc 012c 1cbc 2070 963d 9291 883d
00000130: 7505 05bd c90b 74bd f7d7 74bd 03bd 7e3c
00000140: 2541 ac3c 84b1 78bd dc97 b63d 1e6a adbc
00000150: 950e 9bbc 51b4 ae3b e141 a6bd 751f 3fbd
00000160: 8c49 12bd 4e17 47bd 70c4 7f3b d4d2 94bd
00000170: c9c7 4bbd 1ad4 45bd 594f 903d e7f3 90bd
00000180: 8c4d 6b3d 89e5 293d 20f3 db3c 0af9 9c3d
00000190: 0bf1 99bd 48da d8bc 0c3b e03c 2d63 37bd
000001a0: 453c a9bc 5bc5 9d3c bac6 32bc 8817 23bc
000001b0: 37f8 89bd 476e 913d 0f2a 81bd a6a8 3abd
000001c0: 3683 943d dfe8 4c3d 59c0 593d d288 d63c
000001d0: 9b29 253d 3b4e b73b 0213 2a3d 6328 67bd
000001e0: 77a1 a63d e0f0 71bd 3fbd 8a3c ec2a ae3d
000001f0: 694a 7a3d 92a7 b83b 8fc3 19bd 31ae 81bd
00000200: dad8 0d3d 13bc 40bd 5ff5 9e3d ba87 8e3d
00000210: 22a6 983c ca45 35bb c929 e9bc c6ef 183c
00000220: ba18 bebc dbbb b63d 16ec 86bd dfed 9fbd
00000230: 5326 b5bd 740e e2bc ca10 353d aec5 433d
00000240: 47ca d0bb 1a47 a73d 8e60 573d 6a01 4fbc
00000250: 43c5 15bd 53bc c63d cc96 6abd 00b3 6f3d
00000260: 4feb b23d 6103 9ebd ae70 aa3d 9633 03bb
00000270: 3a2f 5f3d 4299 313d 53f6 b93d ebbc b3bd
00000280: f936 4cbd e5e6 01bd 5124 c0bc d65b 7b3d
00000290: 460f 8bbd 5624 a53d 4c54 2739 57a8 a63c
000002a0: 8262 843d 08b1 063d 7e6e 863d 68df b3bb
000002b0: 2960 ea3c ecb8 733d 1a33 983d 2414 5a3a
000002c0: 0c16 aabd 277d 753d a22f 59bb 9ded f33c
000002d0: a6e3 41bc 9238 a53c 0c1a 633d db7b 35bd
000002e0: 6920 c53c 9936 9c3d f73d 2fbc 3f20 9a3d
000002f0: 66ec e23b dd16 813c b40d 5fbd 1616 0f3d
00000300: d13a aa3d ec38 adbd c0d5 823d a9e4 103c
00000310: d195 75bc cc09 913c 451c 543b 31e8 6d3d
00000320: 1b71 5c3d ca61 4f3c c241 8a3c 4134 dcbc
00000330: e886 9c3c 13fd 37bd fb4a 6f3d 15db 033d
00000340: 680d 113d ffb2 59bd 4c81 c23d d361 b43d
00000350: 4e9b 433d 7f0d 953b 7187 86bc 60f8 34bd
00000360: 6e79 9a3d 1a80 893d 5ff6 da3c af42 213c
00000370: 3c21 7e3d dd7d 583d e0b8 8e3d 3295 023d
00000380: c1c6 853c 04b1 51bc 2b13 54bd 25e0 cb3d
00000390: ff25 33bc bbce 343d 5bfc 883c f654 aa3d
000003a0: cdfe a7bc 5c0c 923b cfc7 8e3d b057 ac3d
000003b0: abc8 43bc 3b3b bc3d 0c6b 313c ba4d b7bb
000003c0: 527f e23c 1a9c 5cbc 0925 63bd 2aac bf3d
000003d0: e90d 87bd ff56 30bd 17cd 3fbd 51b6 b03c
000003e0: cc26 4ebd 0adf c93c b2d6 83bd add3 c1bc
000003f0: d282 6abd 9e3f 42bd f24b 55bd 0a29 253c
-0.067591906 0.08088822 0.072257504 -0.056267094 0.0842921 -0.069944166 0.035099976 0.027956858
-0.0654483 0.0910145 0.027828839 0.06410278 0.05717235 -0.029743396 -0.011276152 0.01483773
-0.006179847 0.0040238793 -0.0073291427 0.08332923 0.014721711 0.08890354 0.032712433 -0.04072801
0.028988294 0.059926488 -0.0630404 0.032959502 -0.069792174 0.010196479 -0.049607523 -0.06804485
0.083948426 0.015108774 0.080341615 0.09085246 0.0074452604 -0.08524566 -0.043257058 -0.06173037
-0.061347187 -0.068448775 0.06776386 0.07654305 0.0902373 -0.08098432 0.08340426 -0.0027365792
-0.049440477 -0.059832174 -0.033250935 -0.014507546 0.04123375 0.06521925 -0.0027444686 -0.042570274
0.007683318 -0.0242142 0.060244318 0.0076740733 -0.006281076 0.06741393 0.07341388 -0.068843625
-0.071098916 -0.00845209 0.09446105 -0.059016548 0.009687564 -0.06136953 0.07842897 -0.051551364
-0.008473808 -0.009531976 0.07345605 0.0666839 -0.032475907 -0.05958155 -0.059776273 0.015547994
0.021027157 -0.060716167 0.089156836 -0.021168765 -0.018927852 0.005331554 -0.08118034 -0.04666086
-0.03571467 -0.04860621 0.0039026998 -0.07266775 -0.049751077 -0.04829798 0.07046384 -0.07077771
0.057447 0.041478667 0.02684933 0.07664688 -0.075166784 -0.026471272 0.027371906 -0.044772316
-0.020658622 0.019259145 -0.010911638 -0.009954341 -0.06736796 0.07101112 -0.0630685 -0.045570992
0.07251589 0.05002677 0.053161953 0.026188288 0.04032288 0.0055940426 0.041522034 -0.056435
0.08136266 -0.059067607 0.016935943 0.085042804 0.06110612 0.0056352103 -0.037540015 -0.063320525
0.034630634 -0.04705436 0.077616446 0.069594815 0.018633906 -0.0027660006 -0.028462308 0.00933451
-0.02320515 0.08922549 -0.065879986 -0.07809042 -0.088452004 -0.027594782 0.044205464 0.047795944
-0.0063717696 0.081678584 0.052582316 -0.0126346145 -0.036565077 0.09703889 -0.057272717 0.058520317
0.08736288 -0.07715488 0.08322273 -0.0020019761 0.054488398 0.04335905 0.09080186 -0.087762676
-0.049857114 -0.03171434 -0.023454817 0.06136688 -0.067900226 0.08063571 0.00015957764 0.020343943
0.064641014 0.032883674 0.065640435 -0.0054892786 0.028610306 0.059502527 0.07431622 0.0008319041
-0.08304986 0.059933808 -0.0033139964 0.029776389 -0.011834061 0.020168576 0.055444762 -0.04430757
0.024063306 0.07627601 -0.010695926 0.07525682 0.0069251535 0.015757972 -0.054456428 0.034933172
0.083119996 -0.084581226 0.06388426 0.008843579 -0.014989332 0.017704867 0.0032365483 0.058082763
0.053818803 0.012657592 0.016877059 -0.026880385 0.019107297 -0.044919085 0.058421116 0.032191355
0.035413176 -0.05314922 0.09497318 0.08807721 0.047755532 0.004548728 -0.016422005 -0.04418218
0.07542692 0.067138866 0.026728807 0.009842559 0.062043414 0.052854408 0.06968856 0.031880565
0.016330125 -0.0127985515 -0.051776092 0.099548616 -0.010934352 0.044142466 0.016721895 0.08316986
-0.02050724 0.0044570398 0.06971704 0.084151626 -0.011949698 0.09190985 0.010828745 -0.0055939825
0.027648602 -0.013464952 -0.05545524 0.093590096 -0.0659445 -0.043051716 -0.04682645 0.02157131
-0.05032997 0.024642486 -0.06437434 -0.023660505 -0.057253666 -0.04742395 -0.05207438 0.010080585

fc.0.weight f4 [64, 128]
00000000: 772e 48bd 7450 ad3d 2162 23bd dc9e 33bd
00000010: eb3c 543d 12fd 963d e7a5 21bd 20e1 d1bd
00000020: b879 c6bd 4fc2 413d 22cf 993b c57e 4b3d
00000030: bc1e 96bb 3fb3 0abc 8966 b93c 48fe 393d
00000040: 3452 96bd b965 80bd 6da3 cabb 74c4 fb3c
00000050: f92f 04bc d584 c23d b517 0dbd d92a 313d
00000060: 750e d03c 2191 8dbd a3dd 8cbd 203a 8cbd
00000070: a4b6 25bc cf28 dcbc 620d 1f3d 83b0 fbbc
00000080: 8b17 5b3c 563c 93bd b47c b7bd f5a2 e0bd
00000090: c285 523d 38f0 823d 2be1 ed3c 0175 413c
000000a0: bfc4 05bd 76d1 b13d 81bc 2abb d29a 393c
000000b0: e7bf f0bc 53be 9e3c c5f1 5a3d 41a3 9f3d
000000c0: 429c 95bd 50fa 0bbd 16e4 a33d d42b 833d
000000d0: bce4 bc3d e4c9 d63d 975c 673d 2155 883c
000000e0: fbdf 13bd 18db 3dbd 1b69 603d c2b9 153c
000000f0: 0595 993b e2bc 83bc 2772 81bd 1af9 08bc
00000100: b7a9 eb3b 7b18 1abc d73b 2f3d f3f3 2a3c
00000110: a685 2abd 7027 d0bc 7631 69bc 8519 803d
00000120: 7e12 963d c546 ccbc 9737 203d d209 c43c
00000130: 57a4 8cbd b05f 6e3d 76bf 8a3d 46c3 acbd
00000140: 8c74 a7bd 8916 b7bd 9a24 54bb 0a23 273d
00000150: 8680 443d 8a66 d43c 4905 013d efa6 3c3d
00000160: fa6a 90bd f6ac ecbb 8f72 46bd d5c1 923d
00000170: 304e 103c a1a0 dabc 1727 b83d 2cff a93d
00000180: 32dd 753d 5ec4 2ebd 443e 6c3d cf2c c13c
00000190: fa58 673d 666d 2abc 0241 3f3d 3137 fbba
000001a0: a644 563d ffa3 243c 327d 06bd d3e2 21bd
000001b0: 3e88 8c3d cc6a 94bc 4561 d1bd d9e2 8abd
000001c0: 13e2 ab3d 93fe aebc 7a98 963d fc86 fbbc
000001d0: 5f8f 00bd 86cf 26bc f9db 853d 11d2 873d
000001e0: 2b55 903d e124 913d c262 22bd 8fd6 983b
000001f0: 6d79 1a3d 30fc c1bd 0b34 55bc 7a46 b23d
00000200: 6390 523b 601f 7c3c f47b a0bc eb15 7c3c
00000210: 53a0 24bb 7f0b 4dbd 543c cebd 55aa debd
00000220: 20ab 93bd 9d04 99bc 5926 7d3d 34ba 123d
00000230: 6960 163d 9c30 a6bd b7f7 5fbc c6d8 1bbd
00000240: cdec 46bc 1dec 133d 1db5 8dbc 7040 433d
00000250: 13cc 1e3c 0af8 503c 1908 6c3d d1a1 00bd
00000260: 59f5 c53d 893c 00bd 22de 233d 4198 0c3d
00000270: ed78 b8bd fe96 9bbd 61bb 0fbd 3ce9 803d
00000280: 9abe 9dba c7f9 183d d9b7 14bb 72b7 aebd
00000290: 0795 8dbd f461 8e3d f913 8e3d 3300 8abc
000002a0: 2037 a2bd 537f d23d d4b4 a6bd e806 ac3a
000002b0: 6abe 8cbd f65c c0bd c2f4 1c3d b6f9 703c
000002c0: ca61 4dbd c355 663d aa57 1e3c f646 babc
000002d0: 2e30 4ebc 4053 e63d c296 27ba 1ec5 a83d
000002e0: 034a 72bc 320b 55bd cd34 1cbc 38ac 073d
000002f0: 79a0 14bb ca39 dabc 5f3c 05bd 10e8 f9bc
00000300: 485f 32bd f94e 0dbd afcc c03d cac6 05bd
00000310: 5234 51bd cd2c 7dbc 3ebd 75bd dbfa 02bd
00000320: 4ac0 8b3d 72ce 94bc fcbb 053d 5313 4abd
00000330: 6d25 c2bd ff43 fcbc 81e5 2abd c625 9dbd
00000340: 085b afbc 9c28 6d3d 2b8c a63d b555 9e3d
00000350: 1b33 be3d 0eb6 c63d d062 0fbd 623d c9bd
00000360: d8ba 3ebd 70c0 84bd df8f 21bd 1623 e3bc
00000370: 2a0b e63c e191 9abd 5359 f93c 59aa fc3d
00000380: 5745 a1bc 3fd5 c5bd ee4d 963c e864 ab3c
00000390: 0d5a 0b3d 6e5f 39bd 4327 093d 41ee aabc
000003a0: 489a 583d 8344 a33c 2741 b73d c1fd c83c
000003b0: c68f 643b 4cee c2bb ab67 f33c 3c84 2abd
000003c0: b8b3 d2bc e5e4 af3b a280 bdbc 0908 863d
000003d0: 6a9a 9d3c 4065 0d3d cc19 1e3d 0c5b 613d
000003e0: 5a08 d43d a079 413d 9c56 c83c 7bfd fb3c
000003f0: 5ea8 cabc b685 51bc 0ad5 413c f779 c73d
-0.048872437 0.08462611 -0.039888505 -0.043852672 0.05181591 0.07372488 -0.039464857 -0.10248017
-0.09691185 0.047304448 0.0046938816 0.049681444 -0.0045813005 -0.008465587 0.0226319 0.045408517
-0.07339898 -0.06269402 -0.0061840327 0.030733325 -0.008068078 0.09497992 -0.034446437 0.043253753
0.025397519 -0.06912447 -0.06878211 -0.06847024 -0.010114346 -0.026874928 0.038831122 -0.030723816
0.013372312 -0.071892425 -0.08959332 -0.109685816 0.051397093 0.06393474 0.029038033 0.011807681
-0.032658335 0.0868253 -0.0026052298 0.011328416 -0.029388381 0.019377863 0.053453226 0.0779481
-0.073051944 -0.034174263 0.08002488 0.06404844 0.09223315 0.10487726 0.056484785 0.016642155
-0.036102276 -0.046351522 0.054787736 0.009138526 0.004686954 -0.016081277 -0.06320601 -0.008360172
0.0071918624 -0.009405251 0.042781677 0.010434139 -0.041631363 -0.02540943 -0.014232984 0.062548675
0.07327746 -0.02493609 0.039115515 0.023930464 -0.06867283 0.058196723 0.067747995 -0.08435683
-0.081765264 -0.08939845 -0.003237045 0.0408049 0.047974132 0.0259278 0.03149918 0.046057638
-0.07051654 -0.007222767 -0.048449095 0.07165877 0.008807704 -0.026687922 0.08991831 0.08300623
0.0600254 -0.04266774 0.05767657 0.023580937 0.05648134 -0.010402059 0.046692856 -0.0019166229
0.052311562 0.010048865 -0.03283424 -0.039522957 0.06861924 -0.018117331 -0.10223631 -0.06781549
0.083927296 -0.021361625 0.07353301 -0.030704014 -0.03138673 -0.010181313 0.06536097 0.06631864
0.070474945 0.07087112 -0.039644964 0.0046642493 0.037713457 -0.09471929 -0.013012896 0.087048486
0.0032129518 0.01538834 -0.019590355 0.015386085 -0.0025119975 -0.05005979 -0.100701004 -0.10872332
-0.07210374 -0.018678958 0.06180415 0.03582211 0.036713038 -0.0811474 -0.0136699 -0.038048528
-0.012141419 0.036113847 -0.017298276 0.047668874 0.00969221 0.01275445 0.05762491 -0.03140432
0.09665937 -0.03130773 0.040006764 0.03432489 -0.0900744 -0.07597159 -0.035090808 0.06294486
-0.0012034953 0.03734758 -0.002269259 -0.08531083 -0.0691319 0.06952277 0.06937403 -0.016845798
-0.079206705 0.102781914 -0.08139959 0.0013124617 -0.06872256 -0.09392731 0.038319357 0.014707973
-0.050142087 0.056234132 0.009664455 -0.022738915 -0.012584729 0.112463474 -0.0006393009 0.08240722
-0.014788154 -0.05201263 -0.009534073 0.033123225 -0.0022678657 -0.026638884 -0.032528277 -0.030506164
-0.0435479 -0.034499142 0.0941404 -0.032660283 -0.051075287 -0.015452576 -0.05999493 -0.031977516
0.068237856 -0.018164847 0.03264998 -0.049334835 -0.09479795 -0.030794142 -0.04172278 -0.0767322
-0.021405712 0.057900056 0.08132204 0.07731191 0.09287091 0.09702693 -0.035006344 -0.09826161
-0.046564907 -0.06482017 -0.039443847 -0.027726691 0.028081495 -0.075473554 0.0304381 0.12337179
-0.019686384 -0.09659814 0.018347707 0.02092214 0.034021426 -0.045257024 0.03348471 -0.020865561
0.05288151 0.01993013 0.08947974 0.024535062 0.0034875735 -0.0059488174 0.029712519 -0.041630015
-0.025720462 0.0053678625 -0.023132626 0.06544501 0.01923867 0.034520388 0.03859882 0.05501847
0.103531554 0.04723513 0.024455361 0.030760517 -0.024738487 -0.012788227 0.011830578 0.0974006

fc.0.bias f4 [64]
00000000: e640 cdbc 54b9 12bd e6ba a63d 591e b23d
00000010: d3d1 933c 5d62 923d 5b05 a2bd d3f4 29bd
00000020: 8898 d83a b85f 0fbd 6fc1 86bd a347 16bd
00000030: 438b a1bd a91c 53bd d0e9 19bd 2202 9d3d
00000040: a193 92bd 622e df3b b8eb e53c 8551 d03d
00000050: 56c9 413d 86f7 a4ba 06cb 583d f01e a3bb
00000060: 9793 223c 1b11 30bd 01cc 6b3d 9e9a 0dbd
00000070: 01a8 2a3d cd55 803d f2d6 c0bb df27 4cbd
00000080: 4000 5abd 278d 20bd 89c0 ac3d aaba 87bd
00000090: 5848 ea3b 41e7 373d 0d0f 43bd 8843 453d
000000a0: 9f64 dabc f8a8 913d 940c fabb 85e9 5f3d
000000b0: 3078 2a3d 8954 5d3d 5f8e cd3d 44db 823d
000000c0: 209f 6bbc e355 acbc 4e97 5a3d 9ffe f9bc
000000d0: cc10 a6bd dd9a 92bd a98a 73bd e0ce 983d
000000e0: 7f79 b2bd a7bb 963d 66bc 483b 60d1 1abc
000000f0: 48a6 13bd 8c31 3dbd e5b3 ca3d 5dcc 97bd
-0.02505536 -0.035821274 0.08141117 0.086971946 0.018044388 0.071476676 -0.07911178 -0.04149325
0.001652495 -0.035003394 -0.06579863 -0.03668941 -0.0788789 -0.051541004 -0.037576497 0.076664224
-0.07157064 0.006810949 0.028066501 0.101717986 0.04731115 -0.0012585975 0.052927993 -0.0049780533
0.0099228835 -0.042985063 0.0575676 -0.034571283 0.041664127 0.06266365 -0.0058849985 -0.04984271
-0.053222895 -0.039197113 0.08435161 -0.066274 0.0071497373 0.044898275 -0.047621775 0.048160106
-0.026659308 0.07112306 -0.007630894 0.05466606 0.041618526 0.054035697 0.10036921 0.06389478
-0.0143812 -0.021037048 0.05336695 -0.03051692 -0.081086725 -0.07158444 -0.05945841 0.07461333
-0.0871458 0.073600106 0.0030629872 -0.009449333 -0.03604725 -0.04618983 0.098975934 -0.07412026
